…
含义: fire 模块通常是由 squeeze 和 expand 组合而成的复合结构。它首先通过 squeeze 减少通道数，然后通过 expand 增加通道数，可能包含  和  的卷积核。
作用: 在处理过程中，fire 模块有效地提取和扩展特征。这个设计能够有效地增强模型的能力，同时减少参数数量。fire 模块通常用于 SqueezeNet 等网络中。
4. DeFire
含义: defire 模块的作用相反于 fire 模块。它通常用于上采样或解码过程，可能包含逐点卷积（比 squeeze 更大的反卷积）和更复杂的特征恢复。
作用: 在降维后，通过反卷积层和扩展操作将特征图恢复到较高的分辨率，旨在恢复空间信息和更细致的特征，通常用于生成模型的输出。

squeeze 和 expand 主要用来控制通道数，而 fire 和 defire 是通过组合这些操作来实现特征的压缩与扩展。

SqueezeWithHead(  # 主模型类，包含用于模型的组件。
  (squeeze): SqueezeSegBone(  # SqueezeSegBone架构，通常用于语义分割任务。
    (start): Sequential(  # 定义模型最开始的层，使用一个顺序容器保持层的顺序。
      (0): Conv(  # 卷积层的定义。
        (net): Sequential(  # 包含该卷积层的多个层。
          (0): Conv2d(11, 64, kernel_size=(3, 3), stride=(1, 2), padding=(1, 1))  # 11个输入通道，64个输出通道的卷积层，3x3的卷积核，步幅为(1, 2)，填充为(1, 1)。
          (1): ReLU(inplace=True)  # 应用ReLU激活函数，in-place表示在原地操作。
          (2): BatchNorm2d(64, eps=1e-05, momentum=0.1, affine=True, track_running_stats=True)  # 批归一化层，帮助加速收敛和稳定训练过程。
        )
      )
      (1): ContextAggregation(  # 上下文聚合模块，用于融合不同上下文的信息。
        (nets): Sequential(  # 顺序容器，定义上下文聚合模块中的层。
          (0): Pool(  # 池化层。
            (pool): MaxPool2d(kernel_size=7, stride=(1, 1), padding=3, dilation=1, ceil_mode=False)  # 最大池化层，7x7的池化核。
          )
          (1): Conv(  # 卷积层。
            (net): Sequential(  # 定义卷积层内部的结构。
              (0): Conv2d(64, 4, kernel_size=(1, 1), stride=(1, 1))  # 从64个通道减少到4个通道的卷积层。
              (1): ReLU(inplace=True)  # 应用ReLU激活函数。
            )
          )
          (2): Conv(  # 另一个卷积层。
            (net): Sequential(  # 内部结构。
              (0): Conv2d(4, 64, kernel_size=(1, 1), stride=(1, 1))  # 将通道从4增加回64。
            )
          )
          (3): Sigmoid()  # 应用Sigmoid激活函数，输出为0-1范围内的值。
        )
      )
      (2): Conv(  # 另一个卷积层。
        (net): Sequential(  # 包含该卷积层内部结构。
          (0): Conv2d(64, 64, kernel_size=(1, 1), stride=(1, 1))  # 输入和输出通道都是64的卷积层。
          (1): ReLU(inplace=True)  # 应用ReLU激活函数。
          (2): BatchNorm2d(64, eps=1e-05, momentum=0.1, affine=True, track_running_stats=True)  # 批归一化。
        )
      )
    )
    (rest): Sequential(  # 定义后续的层。
      (0): Pool(  # 池化层。
        (pool): MaxPool2d(kernel_size=3, stride=(1, 2), padding=1, dilation=1, ceil_mode=False)  # 最大池化层，3x3的池化核。
      )
      (1): SqueezePart(  # SqueezePart 模块，进一步处理特征。
        (beg): Sequential(  # 先构建阶段的顺序容器。
          (0): Fire(  # Fire模块，通常为squeeze和expand结构。
            (squeeze): Conv(  # Squeeze部分。
              (net): Sequential(  # 包含该卷积层的多个层。
                (0): Conv2d(64, 16, kernel_size=(1, 1), stride=(1, 1))  # 将通道从64减少到16。
                (1): ReLU(inplace=True)  # 应用ReLU激活函数。
                (2): BatchNorm2d(16, eps=1e-05, momentum=0.1, affine=True, track_running_stats=True)  # 批归一化。
              )
            )
            (expand1x1): Conv(  # Expand部分（1x1卷积）。
              (net): Sequential(  # 包含该卷积层的结构。
                (0): Conv2d(16, 64, kernel_size=(1, 1), stride=(1, 1))  # 从16个通道扩展到64。
                (1): ReLU(inplace=True)  # 应用ReLU激活。
                (2): BatchNorm2d(64, eps=1e-05, momentum=0.1, affine=True, track_running_stats=True)  # 批归一化。
              )
            )
            (expand3x3): Conv(  # Expand部分（3x3卷积）。
              (net): Sequential(  # 卷积层的结构。
                (0): Conv2d(16, 64, kernel_size=(3, 3), stride=(1, 1), padding=(1, 1))  # 从16个通道扩展到64。
                (1): ReLU(inplace=True)  # 应用ReLU激活。
                (2): BatchNorm2d(64, eps=1e-05, momentum=0.1, affine=True, track_running_stats=True)  # 批归一化。
              )
            )
            (cam): ContextAggregation(  # 上下文聚合层。
              (nets): Sequential(  # 包含上下文聚合内部结构。
                (0): Pool(  # 池化层。
                  (pool): MaxPool2d(kernel_size=7, stride=(1, 1), padding=3, dilation=1, ceil_mode=False)  # 最大池化层。
                )
                (1): Conv(  # 卷积层。
                  (net): Sequential(  # 定义卷积层内部结构。
                    (0): Conv2d(128, 8, kernel_size=(1, 1), stride=(1, 1))  # 从128个通道减少到8个通道。
                    (1): ReLU(inplace=True)  # 应用ReLU激活函数。
                  )
                )
                (2): Conv(  # 另一个卷积层。
                  (net): Sequential(  # 内部结构。
                    (0): Conv2d(8, 128, kernel_size=(1, 1), stride=(1, 1))  # 将通道从8增加回128。
                  )
                )
                (3): Sigmoid()  # 应用Sigmoid激活函数。
              )
            )
          )
          (1): Fire(  # 另一个Fire模块。
            (squeeze): Conv(  # Squeeze部分。
              (net): Sequential(  # 包含该卷积层的结构。
                (0): Conv2d(128, 16, kernel_size=(1, 1), stride=(1, 1))  # 从128减少到16。
                (1): ReLU(inplace=True)  # 应用ReLU激活。
                (2): BatchNorm2d(16, eps=1e-05, momentum=0.1, affine=True, track_running_stats=True)  # 批归一化。
              )
            )
            (expand1x1): Conv(  # Expand部分（1x1卷积）。
              (net): Sequential(  # 包含该卷积层的结构。
                (0): Conv2d(16, 64, kernel_size=(1, 1), stride=(1, 1))  # 从16扩展到64。
                (1): ReLU(inplace=True)  # 应用ReLU激活。
                (2): BatchNorm2d(64, eps=1e-05, momentum=0.1, affine=True, track_running_stats=True)  # 批归一化。
              )
            )
            (expand3x3): Conv(  # Expand部分（3x3卷积）。
              (net): Sequential(  # 卷积层的结构。
                (0): Conv2d(16, 64, kernel_size=(3, 3), stride=(1, 1), padding=(1, 1))  # 从16扩展到64。
                (1): ReLU(inplace=True)  # 应用ReLU激活。
                (2): BatchNorm2d(64, eps=1e-05, momentum=0.1, affine=True, track_running_stats=True)  # 批归一化。
              )
            )
            (cam): ContextAggregation(  # 上下文聚合层。
              (nets): Sequential(  # 包含上下文聚合的结构。
                (0): Pool(  # 池化层。
                  (pool): MaxPool2d(kernel_size=7, stride=(1, 1), padding=3, dilation=1, ceil_mode=False)  # 最大池化层。
                )
                (1): Conv(  # 卷积层。
                  (net): Sequential(  # 定义卷积结构。
                    (0): Conv2d(128, 8, kernel_size=(1, 1), stride=(1, 1))  # 从128减少到8。
                    (1): ReLU(inplace=True)  # 应用ReLU激活函数。
                  )
                )
                (2): Conv(  # 另一个卷积层。
                  (net): Sequential(  # 内部结构。
                    (0): Conv2d(8, 128, kernel_size=(1, 1), stride=(1, 1))  # 增加从8到128的通道。
                  )
                )
                (3): Sigmoid()  # 应用Sigmoid激活函数。
              )
            )
          )
        )
        (rest): Sequential(  # 处理进一步特征的层。
          (0): Pool(  # 池化层。
            (pool): MaxPool2d(kernel_size=3, stride=(1, 2), padding=1, dilation=1, ceil_mode=False)  # 最大池化层。
          )
          (1): SqueezePart(  # SqueezePart模块，用于进一步特征处理。
            (beg): Sequential(  # 开始阶段的顺序容器。
              (0): Fire(  # Fire模块。
                (squeeze): Conv(  # Squeeze部分。
                  (net): Sequential(  # 包含卷积层的结构。
                    (0): Conv2d(128, 32, kernel_size=(1, 1), stride=(1, 1))  # 从128减少到32。
                    (1): ReLU(inplace=True)  # 应用ReLU激活。
                    (2): BatchNorm2d(32, eps=1e-05, momentum=0.1, affine=True, track_running_stats=True)  # 批归一化。
                  )
                )
                (expand1x1): Conv(  # Expand部分（1x1卷积）。
                  (net): Sequential(  # 包含卷积层的结构。
                    (0): Conv2d(32, 128, kernel_size=(1, 1), stride=(1, 1))  # 从32扩展到128。
                    (1): ReLU(inplace=True)  # 应用ReLU激活。
                    (2): BatchNorm2d(128, eps=1e-05, momentum=0.1, affine=True, track_running_stats=True)  # 批归一化。
                  )
                )
                (expand3x3): Conv(  # Expand部分（3x3卷积）。
                  (net): Sequential(  # 卷积层的结构。
                    (0): Conv2d(32, 128, kernel_size=(3, 3), stride=(1, 1), padding=(1, 1))  # 从32扩展到128。
                    (1): ReLU(inplace=True)  # 应用ReLU激活。
                    (2): BatchNorm2d(128, eps=1e-05, momentum=0.1, affine=True, track_running_stats=True)  # 批归一化。
                  )
                )
              )
              (1): Fire(  # 另一个Fire模块。
                (squeeze): Conv(  # Squeeze部分。
                  (net): Sequential(  # 包含卷积层的结构。
                    (0): Conv2d(256, 32, kernel_size=(1, 1), stride=(1, 1))  # 减少从256到32。
                    (1): ReLU(inplace=True)  # 应用ReLU激活。
                    (2): BatchNorm2d(32, eps=1e-05, momentum=0.1, affine=True, track_running_stats=True)  # 批归一化。
                  )
                )
                (expand1x1): Conv(  # Expand部分（1x1卷积）。
                  (net): Sequential(  # 包含卷积层的结构。
                    (0): Conv2d(32, 128, kernel_size=(1, 1), stride=(1, 1))  # 扩展从32到128。
                    (1): ReLU(inplace=True)  # 应用ReLU激活。
                    (2): BatchNorm2d(128, eps=1e-05, momentum=0.1, affine=True, track_running_stats=True)  # 批归一化。
                  )
                )
                (expand3x3): Conv(  # Expand部分（3x3卷积）。
                  (net): Sequential(  # 卷积层的结构。
                    (0): Conv2d(32, 128, kernel_size=(3, 3), stride=(1, 1), padding=(1, 1))  # 从32扩展到128。
                    (1): ReLU(inplace=True)  # 应用ReLU激活。
                    (2): BatchNorm2d(128, eps=1e-05, momentum=0.1, affine=True, track_running_stats=True)  # 批归一化。
                  )
                )
              )
            )
            (rest): Sequential(  # 剩余特征的顺序容器。
              (0): Pool(  # 池化层。
                (pool): MaxPool2d(kernel_size=3, stride=(1, 2), padding=1, dilation=1, ceil_mode=False)  # 最大池化层。
              )
              (1): SqueezePart(  # 另一个SqueezePart模块。
                (beg): Sequential(  # 开始阶段的顺序容器。
                  (0): Fire(  # Fire模块。
                    (squeeze): Conv(  # Squeeze部分。
                      (net): Sequential(  # 包含卷积层的结构。
                        (0): Conv2d(256, 48, kernel_size=(1, 1), stride=(1, 1))  # 从256减少到48。
                        (1): ReLU(inplace=True)  # 应用ReLU激活。
                        (2): BatchNorm2d(48, eps=1e-05, momentum=0.1, affine=True, track_running_stats=True)  # 批归一化。
                      )
                    )
                    (expand1x1): Conv(  # Expand部分（1x1卷积）。
                      (net): Sequential(  # 包含卷积层的结构。
                        (0): Conv2d(48, 192, kernel_size=(1, 1), stride=(1, 1))  # 从48扩展到192。
                        (1): ReLU(inplace=True)  # 应用ReLU激活。
                        (2): BatchNorm2d(192, eps=1e-05, momentum=0.1, affine=True, track_running_stats=True)  # 批归一化。
                      )
                    )
                    (expand3x3): Conv(  # Expand部分（3x3卷积）。
                      (net): Sequential(  # 卷积层的结构。
                        (0): Conv2d(48, 192, kernel_size=(3, 3), stride=(1, 1), padding=(1, 1))  # 从48扩展到192。
                        (1): ReLU(inplace=True)  # 应用ReLU激活。
                        (2): BatchNorm2d(192, eps=1e-05, momentum=0.1, affine=True, track_running_stats=True)  # 批归一化。
                      )
                    )
                  )
                  (1): Fire(  # 另一个Fire模块。
                    (squeeze): Conv(  # Squeeze部分。
                      (net): Sequential(  # 包含卷积层的结构。
                        (0): Conv2d(384, 48, kernel_size=(1, 1), stride=(1, 1))  # 从384减少到48。
                        (1): ReLU(inplace=True)  # 应用ReLU激活。
                        (2): BatchNorm2d(48, eps=1e-05, momentum=0.1, affine=True, track_running_stats=True)  # 批归一化。
                      )
                    )
                    (expand1x1): Conv(  # Expand部分（1x1卷积）。
                      (net): Sequential(  # 包含卷积层的结构。
                        (0): Conv2d(48, 192, kernel_size=(1, 1), stride=(1, 1))  # 从48扩展到192。
                        (1): ReLU(inplace=True)  # 应用ReLU激活。
                        (2): BatchNorm2d(192, eps=1e-05, momentum=0.1, affine=True, track_running_stats=True)  # 批归一化。
                      )
                    )
                    (expand3x3): Conv(  # Expand部分（3x3卷积）。
                      (net): Sequential(  # 卷积层的结构。
                        (0): Conv2d(48, 192, kernel_size=(3, 3), stride=(1, 1), padding=(1, 1))  # 从48扩展到192。
                        (1): ReLU(inplace=True)  # 应用ReLU激活。
                        (2): BatchNorm2d(192, eps=1e-05, momentum=0.1, affine=True, track_running_stats=True)  # 批归一化。
                      )
                    )
                  )
                )
                (rest): Sequential(  # 剩余部分的顺序容器。
                  (0): Pool(  # 池化层。
                    (pool): MaxPool2d(kernel_size=3, stride=(1, 2), padding=1, dilation=1, ceil_mode=False)  # 最大池化层。
                  )
                  (1): SqueezePart(  # 另一个SqueezePart模块。
                    (net): Sequential(  # 顺序容器。
                      (0): Fire(  # Fire模块。
                        (squeeze): Conv(  # Squeeze部分。
                          (net): Sequential(  # 卷积层的结构。
                            (0): Conv2d(384, 64, kernel_size=(1, 1), stride=(1, 1))  # 从384减少到64。
                            (1): ReLU(inplace=True)  # 应用ReLU激活。
                            (2): BatchNorm2d(64, eps=1e-05, momentum=0.1, affine=True, track_running_stats=True)  # 批归一化。
                          )
                        )
                        (expand1x1): Conv(  # Expand部分（1x1卷积）。
                          (net): Sequential(  # 卷积层的结构。
                            (0): Conv2d(64, 256, kernel_size=(1, 1), stride=(1, 1))  # 从64扩展到256。
                            (1): ReLU(inplace=True)  # 应用ReLU激活。
                            (2): BatchNorm2d(256, eps=1e-05, momentum=0.1, affine=True, track_running_stats=True)  # 批归一化。
                          )
                        )
                        (expand3x3): Conv(  # Expand部分（3x3卷积）。
                          (net): Sequential(  # 卷积层的结构。
                            (0): Conv2d(64, 256, kernel_size=(3, 3), stride=(1, 1), padding=(1, 1))  # 从64扩展到256。
                            (1): ReLU(inplace=True)  # 应用ReLU激活。
                            (2): BatchNorm2d(256, eps=1e-05, momentum=0.1, affine=True, track_running_stats=True)  # 批归一化。
                          )
                        )
                      )
                      (1): Fire(  # 另一个Fire模块。
                        (squeeze): Conv(  # Squeeze部分。
                          (net): Sequential(  # 包含卷积层的结构。
                            (0): Conv2d(512, 64, kernel_size=(1, 1), stride=(1, 1))  # 从512减少到64。
                            (1): ReLU(inplace=True)  # 应用ReLU激活。
                            (2): BatchNorm2d(64, eps=1e-05, momentum=0.1, affine=True, track_running_stats=True)  # 批归一化。
                          )
                        )
                        (expand1x1): Conv(  # Expand部分（1x1卷积）。
                          (net): Sequential(  # 包含卷积层的结构。
                            (0): Conv2d(64, 256, kernel_size=(1, 1), stride=(1, 1))  # 从64扩展到256。
                            (1): ReLU(inplace=True)  # 应用ReLU激活。
                            (2): BatchNorm2d(256, eps=1e-05, momentum=0.1, affine=True, track_running_stats=True)  # 批归一化。
                          )
                        )
                        (expand3x3): Conv(  # Expand部分（3x3卷积）。
                          (net): Sequential(  # 卷积层的结构。
                            (0): Conv2d(64, 256, kernel_size=(3, 3), stride=(1, 1), padding=(1, 1))  # 从64扩展到256。
                            (1): ReLU(inplace=True)  # 应用ReLU激活。
                            (2): BatchNorm2d(256, eps=1e-05, momentum=0.1, affine=True, track_running_stats=True)  # 批归一化。
                          )
                        )
                      )
                      (2): Fire(  # 另一个Fire模块。
                        (squeeze): Conv(  # Squeeze部分。
                          (net): Sequential(  # 包含卷积层的结构。
                            (0): Conv2d(512, 80, kernel_size=(1, 1), stride=(1, 1))  # 从512减少到80。
                            (1): ReLU(inplace=True)  # 应用ReLU激活。
                            (2): BatchNorm2d(80, eps=1e-05, momentum=0.1, affine=True, track_running_stats=True)  # 批归一化。
                          )
                        )
                        (expand1x1): Conv(  # Expand部分（1x1卷积）。
                          (net): Sequential(  # 卷积层的结构。
                            (0): Conv2d(80, 320, kernel_size=(1, 1), stride=(1, 1))  # 从80扩展到320。
                            (1): ReLU(inplace=True)  # 应用ReLU激活。
                            (2): BatchNorm2d(320, eps=1e-05, momentum=0.1, affine=True, track_running_stats=True)  # 批归一化。
                          )
                        )
                        (expand3x3): Conv(  # Expand部分（3x3卷积）。
                          (net): Sequential(  # 卷积层的结构。
                            (0): Conv2d(80, 320, kernel_size=(3, 3), stride=(1, 1), padding=(1, 1))  # 从80扩展到320。
                            (1): ReLU(inplace=True)  # 应用ReLU激活。
                            (2): BatchNorm2d(320, eps=1e-05, momentum=0.1, affine=True, track_running_stats=True)  # 批归一化。
                          )
                        )
                      )
                      (3): Fire(  # 另一个Fire模块。
                        (squeeze): Conv(  # Squeeze部分。
                          (net): Sequential(  # 包含卷积层的结构。
                            (0): Conv2d(640, 80, kernel_size=(1, 1), stride=(1, 1))  # 从640减少到80。
                            (1): ReLU(inplace=True)  # 应用ReLU激活。
                            (2): BatchNorm2d(80, eps=1e-05, momentum=0.1, affine=True, track_running_stats=True)  # 批归一化。
                          )
                        )
                        (expand1x1): Conv(  # Expand部分（1x1卷积）。
                          (net): Sequential(  # 卷积层的结构。
                            (0): Conv2d(80, 320, kernel_size=(1, 1), stride=(1, 1))  # 从80扩展到320。
                            (1): ReLU(inplace=True)  # 应用ReLU激活。
                            (2): BatchNorm2d(320, eps=1e-05, momentum=0.1, affine=True, track_running_stats=True)  # 批归一化。
                          )
                        )
                        (expand3x3): Conv(  # Expand部分（3x3卷积）。
                          (net): Sequential(  # 卷积层的结构。
                            (0): Conv2d(80, 320, kernel_size=(3, 3), stride=(1, 1), padding=(1, 1))  # 从80扩展到320。
                            (1): ReLU(inplace=True)  # 应用ReLU激活。
                            (2): BatchNorm2d(320, eps=1e-05, momentum=0.1, affine=True, track_running_stats=True)  # 批归一化。
                          )
                        )
                      )
                    )
                  )
                  (2): DeFire(  # DeFire模块，用于上采样或解码过程。
                    (squeeze): Conv(  # Squeeze部分。
                      (net): Sequential(  # 卷积层的结构。
                        (0): Conv2d(640, 96, kernel_size=(1, 1), stride=(1, 1))  # 从640减少到96。
                        (1): ReLU(inplace=True)  # 应用ReLU激活。
                        (2): BatchNorm2d(96, eps=1e-05, momentum=0.1, affine=True, track_running_stats=True)  # 批归一化。
                      )
                    )
                    (deconv): DeConv(  # 反卷积层，用于上采样。
                      (net): Sequential(  # 定义反卷积的结构。
                        (0): ConvTranspose2d(96, 96, kernel_size=(1, 4), stride=(1, 2), padding=(0, 1))  # 反卷积操作。
                        (1): ReLU(inplace=True)  # 应用ReLU激活。
                        (2): BatchNorm2d(96, eps=1e-05, momentum=0.1, affine=True, track_running_stats=True)  # 批归一化。
                      )
                    )
                    (expand1x1): Conv(  # Expand部分（1x1卷积）。
                      (net): Sequential(  # 卷积层的结构。
                        (0): Conv2d(96, 192, kernel_size=(1, 1), stride=(1, 1))  # 从96扩展到192。
                        (1): ReLU(inplace=True)  # 应用ReLU激活。
                        (2): BatchNorm2d(192, eps=1e-05, momentum=0.1, affine=True, track_running_stats=True)  # 批归一化。
                      )
                    )
                    (expand3x3): Conv(  # Expand部分（3x3卷积）。
                      (net): Sequential(  # 卷积层的结构。
                        (0): Conv2d(96, 192, kernel_size=(3, 3), stride=(1, 1), padding=(1, 1))  # 从96扩展到192。
                        (1): ReLU(inplace=True)  # 应用ReLU激活。
                        (2): BatchNorm2d(192, eps=1e-05, momentum=0.1, affine=True, track_running_stats=True)  # 批归一化。
                      )
                    )
                  )
                )
              )
              (2): DeFire(  # 另一个DeFire模块。
                (squeeze): Conv(  # Squeeze部分。
                  (net): Sequential(  # 卷积层的结构。
                    (0): Conv2d(384, 64, kernel_size=(1, 1), stride=(1, 1))  # 从384减少到64。
                    (1): ReLU(inplace=True)  # 应用ReLU激活。
                    (2): BatchNorm2d(64, eps=1e-05, momentum=0.1, affine=True, track_running_stats=True)  # 批归一化。
                  )
                )
                (deconv): DeConv(  # 反卷积层，用于上采样。
                  (net): Sequential(  # 定义结构。
                    (0): ConvTranspose2d(64, 64, kernel_size=(1, 4), stride=(1, 2), padding=(0, 1))  # 反卷积操作。
                    (1): ReLU(inplace=True)  # 应用ReLU激活。
                    (2): BatchNorm2d(64, eps=1e-05, momentum=0.1, affine=True, track_running_stats=True)  # 批归一化。
                  )
                )
                (expand1x1): Conv(  # Expand部分（1x1卷积）。
                  (net): Sequential(  # 卷积层的结构。
                    (0): Conv2d(64, 128, kernel_size=(1, 1), stride=(1, 1))  # 从64扩展到128。
                    (1): ReLU(inplace=True)  # 应用ReLU激活。
                    (2): BatchNorm2d(128, eps=1e-05, momentum=0.1, affine=True, track_running_stats=True)  # 批归一化。
                  )
                )
                (expand3x3): Conv(  # Expand部分（3x3卷积）。
                  (net): Sequential(  # 卷积层的结构。
                    (0): Conv2d(64, 128, kernel_size=(3, 3), stride=(1, 1), padding=(1, 1))  # 从64扩展到128。
                    (1): ReLU(inplace=True)  # 应用ReLU激活。
                    (2): BatchNorm2d(128, eps=1e-05, momentum=0.1, affine=True, track_running_stats=True)  # 批归一化。
                  )
                )
              )
            )
          )
          (2): DeFire(  # 另一个DeFire模块。
            (squeeze): Conv(  # Squeeze部分。
              (net): Sequential(  # 卷积层的结构。
                (0): Conv2d(256, 32, kernel_size=(1, 1), stride=(1, 1))  # 从256减少到32。
                (1): ReLU(inplace=True)  # 应用ReLU激活。
                (2): BatchNorm2d(32, eps=1e-05, momentum=0.1, affine=True, track_running_stats=True)  # 批归一化。
              )
            )
            (deconv): DeConv(  # 反卷积层，用于上采样。
              (net): Sequential(  # 定义结构。
                (0): ConvTranspose2d(32, 32, kernel_size=(1, 4), stride=(1, 2), padding=(0, 1))  # 反卷积操作。
                (1): ReLU(inplace=True)  # 应用ReLU激活。
                (2): BatchNorm2d(32, eps=1e-05, momentum=0.1, affine=True, track_running_stats=True)  # 批归一化。
              )
            )
            (expand1x1): Conv(  # Expand部分（1x1卷积）。
              (net): Sequential(  # 卷积层的结构。
                (0): Conv2d(32, 64, kernel_size=(1, 1), stride=(1, 1))  # 从32扩展到64。
                (1): ReLU(inplace=True)  # 应用ReLU激活。
                (2): BatchNorm2d(64, eps=1e-05, momentum=0.1, affine=True, track_running_stats=True)  # 批归一化。
              )
            )
            (expand3x3): Conv(  # Expand部分（3x3卷积）。
              (net): Sequential(  # 卷积层的结构。
                (0): Conv2d(32, 64, kernel_size=(3, 3), stride=(1, 1), padding=(1, 1))  # 从32扩展到64。
                (1): ReLU(inplace=True)  # 应用ReLU激活。
                (2): BatchNorm2d(64, eps=1e-05, momentum=0.1, affine=True, track_running_stats=True)  # 批归一化。
              )
            )
          )
        )
      )
      (2): DeFire(
        (squeeze): Conv(
          (net): Sequential(
            (0): Conv2d(128, 16, kernel_size=(1, 1), stride=(1, 1))
            (1): ReLU(inplace=True)
            (2): BatchNorm2d(16, eps=1e-05, momentum=0.1, affine=True, track_running_stats=True)
          )
        )
        (deconv): DeConv(
          (net): Sequential(
            (0): ConvTranspose2d(16, 16, kernel_size=(1, 4), stride=(1, 2), padding=(0, 1))
            (1): ReLU(inplace=True)
            (2): BatchNorm2d(16, eps=1e-05, momentum=0.1, affine=True, track_running_stats=True)
          )
        )
        (expand1x1): Conv(
          (net): Sequential(
            (0): Conv2d(16, 32, kernel_size=(1, 1), stride=(1, 1))
            (1): ReLU(inplace=True)
            (2): BatchNorm2d(32, eps=1e-05, momentum=0.1, affine=True, track_running_stats=True)
          )
        )
        (expand3x3): Conv(
          (net): Sequential(
            (0): Conv2d(16, 32, kernel_size=(3, 3), stride=(1, 1), padding=(1, 1))
            (1): ReLU(inplace=True)
            (2): BatchNorm2d(32, eps=1e-05, momentum=0.1, affine=True, track_running_stats=True)
          )
        )
      )
      (3): Dropout2d(p=0.5, inplace=False)  #  dropout层，用于减少过拟合，p=0.5表示将一半的神经元置为0。
    )
  )
  (head): L2ReflectHead(  # 输出层，用于产生模型最终的输出。
    (net): Sequential(  # 包含头部结构的顺序容器。
      (0): DeFire(  # DeFire模块，用于解码过程。
        (squeeze): Conv(  # Squeeze部分。
          (net): Sequential(  # 卷积层的结构。
            (0): Conv2d(64, 2, kernel_size=(1, 1), stride=(1, 1))  # 从64减少到2个通道，通常用于产生类别数目的输出。
            (1): ReLU(inplace=True)  # 应用ReLU激活。
            (2): BatchNorm2d(2, eps=1e-05, momentum=0.1, affine=True, track_running_stats=True)  # 批归一化。
          )
        )
        (deconv): DeConv(  # 反卷积层，用于上采样。
          (net): Sequential(  # 定义结构。
            (0): ConvTranspose2d(2, 2, kernel_size=(1, 4), stride=(1, 2), padding=(0, 1))  # 反卷积操作。
            (1): ReLU(inplace=True)  # 应用ReLU激活。
            (2): BatchNorm2d(2, eps=1e-05, momentum=0.1, affine=True, track_running_stats=True)  # 批归一化。
          )
        )
        (expand1x1): Conv(  # Expand部分（1x1卷积）。
          (net): Sequential(  # 包含卷积层的结构。
            (0): Conv2d(2, 16, kernel_size=(1, 1), stride=(1, 1))  # 从2扩展到16。
            (1): ReLU(inplace=True)  # 应用ReLU激活。
            (2): BatchNorm2d(16, eps=1e-05, momentum=0.1, affine=True, track_running_stats=True)  # 批归一化。
          )
        )
        (expand3x3): Conv(  # Expand部分（3x3卷积）。
          (net): Sequential(  # 卷积层的结构。
            (0): Conv2d(2, 16, kernel_size=(3, 3), stride=(1, 1), padding=(1, 1))  # 从2扩展到16。
            (1): ReLU(inplace=True)  # 应用ReLU激活。
            (2): BatchNorm2d(16, eps=1e-05, momentum=0.1, affine=True, track_running_stats=True)  # 批归一化。
          )
        )
      )
      (1): Fire(  # 另一个Fire模块。
        (squeeze): Conv(  # Squeeze部分。
          (net): Sequential(  # 卷积层的结构。
            (0): Conv2d(32, 2, kernel_size=(1, 1), stride=(1, 1))  # 从32减少到2。
            (1): ReLU(inplace=True)  # 应用ReLU激活。
            (2): BatchNorm2d(2, eps=1e-05, momentum=0.1, affine=True, track_running_stats=True)  # 批归一化。
          )
        )
        (expand1x1): Conv(  # Expand部分（1x1卷积）。
          (net): Sequential(  # 卷积层的结构。
            (0): Conv2d(2, 16, kernel_size=(1, 1), stride=(1, 1))  # 从2扩展到16。
            (1): ReLU(inplace=True)  # 应用ReLU激活。
            (2): BatchNorm2d(16, eps=1e-05, momentum=0.1, affine=True, track_running_stats=True)  # 批归一化。
          )
        )
        (expand3x3): Conv(  # Expand部分（3x3卷积）。
          (net): Sequential(  # 卷积层的结构。
            (0): Conv2d(2, 16, kernel_size=(3, 3), stride=(1, 1), padding=(1, 1))  # 从2扩展到16。
            (1): ReLU(inplace=True)  # 应用ReLU激活。
            (2): BatchNorm2d(16, eps=1e-05, momentum=0.1, affine=True, track_running_stats=True)  # 批归一化。
          )
        )
      )
      (2): Conv(  # 最后一个卷积层。
        (net): Sequential(  # 卷积层的结构。
          (0): Conv2d(32, 1, kernel_size=(1, 1), stride=(1, 1))  # 从32减少到1，最终输出。
        )
      )
      (3): Sigmoid()  # 最终的Sigmoid激活函数，输出值在0到1之间。
    )
  )
)  # 模型定义的结束标记。
